model/deepfm_model_tf_variables.npz (npz, 388646 bytes, 15 tensors)

embedding/user_linear_var:0 f4 [944, 1]
00000000: 514c 4f3d 8869 8c3d 7b23 dcb6 9ff8 553b
00000010: c417 1e3d 8b25 15bc 27e5 79bd d6b5 8c3c
00000020: 2ffa 603d f54f 9fbd 40a9 a83c e58b 86bd
00000030: 5ee2 fc3b d114 d2bc a77b 17bd 6291 86bd
00000040: 4185 75bd 65a8 a93c 068c 2cbd b548 013d
00000050: f619 3cbd 8720 1bbd c22e f23b b7ed 483d
00000060: caed 0fbc 7a5f 1dbb 9871 ccbc 0c68 ffbb
00000070: 7d1b 59bb e341 8f3d c80f 22bd ee26 673d
00000080: c636 4c3c 2208 453d f475 613d ac16 c03b
00000090: 46b9 a4bc 2984 893d 6e8e 813d fdc2 67bd
000000a0: 639e 843c dd64 5ebd 2300 7e3d 79ed 643d
000000b0: 21b3 493c 978e 113d e1fa 4c3d 2b6c ffbc
000000c0: f9a2 8d3d a301 883b dc7a 9cbd 6fcb 1a3d
000000d0: e5b4 9ebb 9f62 1f3d 14b9 36bd 4824 2a3c
000000e0: 4db8 6b3c 04f0 78bd e888 2fbd e29c 9cbc
000000f0: a3db f9bc 263c 423d f060 693d d70e 80bd
00000100: 8170 fbbc 6557 893d 1387 763d ee4a 853d
00000110: eec0 ddba 9f84 e5bc 7d26 f03c a2de 18bd
00000120: 3bc4 453d d26f 423d bbf0 82bd a2df 803d
00000130: 3248 983d 0b6b 573c 7f17 7fba df7e d33c
00000140: d01e 90bd bca4 3fbd da6d eabc d4d7 643d
00000150: 0679 783d cd06 6bbd 0051 69bd 88e2 233d
00000160: 1b5e 5e3b cfac 4c3c 903d 04bd fbb4 85bd
00000170: 5fb5 9abd e899 6ebd 9806 3dbd 8237 4a3d
00000180: c4c1 483b 8819 83bd 4d0f 41bd 261b 2c3d
00000190: 0233 97bd bd98 7dbd 878a 4a3c 7822 593d
000001a0: bff1 6bbd 9e16 d53c 3388 173d 6f42 433d
000001b0: fc4b f13c f9e4 fbbc 35f1 103d fdce 46bc
000001c0: a3b8 acbc b8e1 023d 24ae 04bd 56a8 263d
000001d0: 0710 d1bb db72 9b3b 1d56 0abd 7764 66bc
000001e0: 6efc 023d e557 5bbd 7a3f 853d ef0f 50bd
000001f0: 359e e3bc 77c3 71bb 0325 06bc 3805 8d3d
00000200: efe0 923d 9bdb e6bc 04fd 5d3d 9361 b5bb
00000210: a5a7 9dbd 74d7 863d 550a 4bbd aeb3 dc39
00000220: 7952 183d 2cd1 53bd 6fc3 1fbc 398e 67bd
00000230: 4a8e 653d 113b afbc 7025 86bd 46ec 47bd
00000240: 94a4 1e3c 004f 81bd 2d0f 97bd 19bd 31bd
00000250: 9045 0abc 6267 08bd cb14 a03d e936 eb3b
00000260: 2812 273d 23d5 aebb 15d6 053d 2d68 3e3d
00000270: 3489 20bd 2517 77bd 4869 973d fde3 1b3d
00000280: 62bc 843b 1db1 be3b 91da fbbc 4ce1 98bc
00000290: 4324 cebb e13c 95bd 02ef 8b3b c1e7 883d
000002a0: fc6b 94bd 5ac8 93bd 6b1f 5cbb 2d17 423d
000002b0: a099 043d f3af 353d db84 9fbc b207 4e3d
000002c0: d179 e5ba eacd 3cbc 7799 cd3b 5177 583d
000002d0: c8b2 44bc a654 6fbc bcd8 cc3c 27d3 1b3d
000002e0: 670d 4bbd 5178 1bbd da1d 8e3d 3535 0cbd
000002f0: 1415 81bd ad26 593d a3ac 3039 9960 3dbd
00000300: 815f 753d 075a 543d ba6c 993d 4387 b03c
00000310: f354 8dbd 509f f53c b2ae 423d 6519 b93c
00000320: 3fa3 81bd 8051 1abc 124e b23c 2c07 64bc
00000330: f188 67bd 4a42 8dba 6d08 bfbc af56 f13c
00000340: b775 47bd 4d5b 8c3d 3f38 9cbd 00ec 1d3d
00000350: d04d 803d b923 8e3d b65c 933d d33f 0b3d
00000360: 5645 35bd 393b 65bd db76 33bd 0e4d 9b3d
00000370: 1880 38bd 94da b5bc 1e00 6c3d 8b5a 8e3d
00000380: 2ebd 193c 53ce 843d f483 883d bf17 eab9
00000390: fac5 893d c5d6 90bd ad11 223d dfa5 89bc
000003a0: 553a bdbc 45e7 0ebd 5f73 a93b 86a4 a93d
000003b0: fc65 8bbd eb65 71bd f05c 423b 0457 7d3d
000003c0: e194 7cbd ce33 863d 9757 20bd 28ef c5bc
000003d0: 53a8 253d 3b76 e4bc da27 81bd b6d0 df3c
000003e0: 9837 03bd 22a5 39bc 129c d33a bbc1 543d
000003f0: cde6 42bd 6d7c 52bd 7984 933c 7bad 903d
0.05060989 0.06856066 -6.5606414e-06 0.003264941 0.038596883 -0.009103189 -0.061009552 0.01717655
0.054926094 -0.077789225 0.020588517 -0.065696515 0.0077174148 -0.025644692 -0.03698316 -0.06570698
-0.059941534 0.02071018 -0.042125724 0.03156348 -0.045923196 -0.037872817 0.007390828 0.049054828
-0.008784721 -0.0024013207 -0.02495651 -0.007794386 -0.0033127957 0.06994989 -0.03956583 0.05643361
0.012464231 0.04810346 0.05504413 0.0058620777 -0.020107877 0.06714661 0.063259944 -0.05658244
0.016188806 -0.05429541 0.06201185 0.055890534 0.012310774 0.035536375 0.050043944 -0.031179508
0.0691585 0.0041505857 -0.07640621 0.037791666 -0.0048433417 0.03891241 -0.044610098 0.010384627
0.014387202 -0.06077577 -0.042855173 -0.019117776 -0.030500239 0.047420643 0.056977212 -0.062528305
-0.030693294 0.06706122 0.06018741 0.06508432 -0.001691846 -0.02801734 0.029315228 -0.037321694
0.048282843 0.04746992 -0.06393572 0.062926546 0.07435645 0.01314808 -0.0009730979 0.025817333
-0.07037127 -0.046787962 -0.028616834 0.055869892 0.060662292 -0.057379533 -0.056962013 0.04001096
0.0033930603 0.012492373 -0.032285273 -0.0652866 -0.07554125 -0.058252245 -0.046148866 0.049369343
0.0030633071 -0.06401354 -0.047133733 0.04201808 -0.07382776 -0.06191324 0.012362129 0.053011388
-0.057603594 0.026011761 0.036995124 0.047670778 0.029455177 -0.030748831 0.035386283 -0.012134311
-0.021084135 0.031953543 -0.032392636 0.04068788 -0.0063800844 0.0047439164 -0.03377353 -0.014062039
0.031979017 -0.05355062 0.06506248 -0.050796445 -0.0277854 -0.0036890188 -0.008187535 0.06885761
0.07171809 -0.028180888 0.054196373 -0.0055353134 -0.07697991 0.06584063 -0.0495704 0.00042095542
0.037188027 -0.051713154 -0.009751185 -0.05653212 0.0560439 -0.02139047 -0.065501094 -0.048809312
0.009682793 -0.06313896 -0.073759414 -0.04339323 -0.008439437 -0.03330172 0.07816466 0.0071781767
0.0407888 -0.0053354665 0.032674868 0.04648607 -0.039193347 -0.060324807 0.07393128 0.038059223
0.0040507773 0.0058194534 -0.030743869 -0.018662117 -0.006290944 -0.07287002 0.0042704353 0.066848285
-0.07247159 -0.072159484 -0.0033588063 0.047385383 0.03237307 0.04435725 -0.01947253 0.050300308
-0.0017507618 -0.011523703 0.006274398 0.052848164 -0.012005515 -0.014607584 0.02500569 0.038043167
-0.04957333 -0.03795654 0.069392875 -0.03423043 -0.063028485 0.0530154 0.0001684898 -0.0462347
0.059905533 0.05184367 0.07491441 0.021548873 -0.069009684 0.029983193 0.047529884 0.022595117
-0.06329965 -0.009418845 0.021765742 -0.0139177255 -0.056527082 -0.0010777202 -0.023319447 0.02946028
-0.048696246 0.06853352 -0.076279156 0.038555145 0.062648416 0.06940407 0.071954176 0.033996414
-0.044255577 -0.055964682 -0.04381452 0.075830564 -0.045044035 -0.022198953 0.0576173 0.069508635
0.009383483 0.06484666 0.06665793 -0.0004464965 0.06727214 -0.07072214 0.03956764 -0.016802726
-0.023099104 -0.034888525 0.005171224 0.082833335 -0.06806561 -0.058935087 0.0029657446 0.061850563
-0.06166542 0.0655285 -0.039146032 -0.02416189 0.04044373 -0.027888408 -0.06306429 0.0273212
-0.03203544 -0.011330875 0.0016144535 0.05194257 -0.04758339 -0.051388193 0.018007504 0.07064339

embedding/item_linear_var:0 f4 [1614, 1]
00000000: 50ae 36bd c632 1a3c 8923 103d 3aa8 b7bc
00000010: fb2c 7d3d 6157 903c c996 7dbd 8864 913a
00000020: 1523 373d 1f60 373d 0b01 0abd 0aa7 313d
00000030: 5ed9 42bd bd42 64bc 13e4 5f3c c06f 3abd
00000040: 9ae5 71bc 885a 30bd a2d3 8e3c 0507 f43c
00000050: 185a 27bd 7e86 8a3c daa8 32bd 16d8 abbc
00000060: 1082 ef3c d1e0 26bd 27b1 06bb b796 6cbd
00000070: 7d0b 6d3d 5dbc 76bd d19f 82bb 1ce2 413c
00000080: d964 86bc c8a7 2b3d 097c 43bd 4286 94bc
00000090: d1b3 c23c f326 7abd a550 efbc 6bbf 653d
000000a0: 7e8a 7a3d 6903 83bc 8e08 663b 54a6 10bd
000000b0: b480 60bd b98b 73bd de0f 46bd 6617 893b
000000c0: c8c5 6bbd abb4 223d 960e b93c 0ab6 073d
000000d0: 198b 5c3d 9f78 2c3d cf0f fc3c 7a51 4ebc
000000e0: 6fdc db3c ba01 d6bc cfbd c23c 00a4 efbc
000000f0: 3dac 553d 5cba 07bd 01ba 333d dcb0 393d
00000100: 9f20 ad3c 7216 71bc d866 7f3d 5b11 69bd
00000110: ac46 5c3d a167 58bd 3e06 fc3c e564 be3c
00000120: 3702 1fbd 61a0 313d e3bd abba 6c8b 0cbc
00000130: 4d4e 0fbd 7a97 663d 1b80 473d 50e8 353c
00000140: 5204 b6bc d37d 31bd 765e fdbc 4d97 6d3d
00000150: cf36 edba a13a fb3c d16d 84bd 7209 21bd
00000160: bafb 06bd e817 70bc ac18 713d 7284 283d
00000170: c435 24bd 1042 b03c 1b1e ab3c 5a34 033d
00000180: 2a2a 083d 8852 b23c c86f b73c c46b 28bd
00000190: 6cf3 3e3b f07d 7f3c 5494 7dbc 9a23 4ebd
000001a0: c2bf 2cbd ab50 c9bc 8d6d 74bb c45b 1ebd
000001b0: 33c1 ba3c c597 62bd ec05 2c3d fdd3 0a3d
000001c0: 03d4 02bd effc 2a3d 72c6 0f3d 2578 bb3b
000001d0: c151 aa3c 4fa5 41bd ba9c 153c 116d 7ebc
000001e0: cba7 bcbc 06eb 7a3d bc77 803c 1b29 85bd
000001f0: fff6 36bd 8a4b 003b 2316 d2bc 16ac f73c
00000200: ada3 00bd bb40 483c 4ced 903c 7303 263c
00000210: fcaa 12ba 37e7 953c 5ee0 8fbd d554 4cbd
00000220: 1ecf 3c3d 332c 17bd fb87 563d c734 82ba
00000230: 9822 e1bc 3385 08bd b132 ff3c a51d 60bd
00000240: 21ac 1a3c c6bd 763d 8673 2cbd 826e f63c
00000250: db38 27bc efc9 79bc be9c 03bd 3486 e43c
00000260: fb47 53bd 11d1 6abd 632d be3c e25f 2bba
00000270: abb8 453c 0477 3abc 0eb9 123d 8116 66bd
00000280: 56df a6bc ed5d 37bd 3717 793d 322c 253d
00000290: 2da2 8d3c 1e3a e4bc a5c0 38bd 3e71 a43a
000002a0: fb0c 1d3b b2cf 4fbd dced 193d 4d53 2a3c
000002b0: f8d7 333d d74d e43c 2331 093d 6500 b43c
000002c0: ef2d e8bc c784 483c 6f3e 8abc 27ac 70bd
000002d0: 0d6d 343b 5d65 283d 48a0 e3ba c4ef d839
000002e0: a5b6 1fbd 5742 9bbb 9522 2cbd 3553 f7bc
000002f0: d11f d4bc 26e9 1e3d 1417 183c 8304 91bc
00000300: cb84 2c3d d059 27bd 5359 58bc 1a38 09bd
00000310: d78d 683c e92d 443d bc9a 313c 47ac 94bc
00000320: ba65 32bd e529 003d 6b6d ffbc 6d85 17bd
00000330: 3823 343d bfa6 3fbd da89 ef3c b719 13bd
00000340: 7f2f c3bc cd1f 84bc 2dae 7b3c 2978 66bd
00000350: e5aa 58bc 77d1 e3bb 1f28 0fbd a211 953c
00000360: b1ba 543d 0caf 82bd c03f 7b3c 636e 26bc
00000370: b7d1 cf3b c021 233d 7357 1d3b afed b33b
00000380: 4173 a83c 466a 483d 6011 f3bc ead8 a53c
00000390: 3137 9c3b 2116 51bd f76a 3b3d b8c9 5ebd
000003a0: 2d3f 7b3d eca9 2d3c 0a18 7b3b 3af7 f7bb
000003b0: 0198 503c 6edd 8abc 2ca6 113d 37b8 af3c
000003c0: 432d ee3c 9282 1abc fa76 443d 9228 9d3c
000003d0: 22bd 19bd 2bc0 42bd 2d0e 34bd d8a6 753d
000003e0: e2c1 eebc 4e18 7d3a bbb8 e43b 0a3b 123c
000003f0: 7757 4c3c 0310 c3bc 971b f1bc 934d 33bd
-0.04459983 0.009411519 0.03519014 -0.022419084 0.061810475 0.01761979 -0.061911378 0.0011092583
0.04471119 0.044769403 -0.0336924 0.04337219 -0.04757058 -0.013931927 0.013665217 -0.04551673
-0.014764214 -0.043055087 0.017434899 0.029788503 -0.040857404 0.016909834 -0.04361806 -0.020977061
0.029236823 -0.040741745 -0.0020552368 -0.05776092 0.057872284 -0.06023823 -0.0039863368 0.011833694
-0.01640551 0.041908056 -0.04772571 -0.018130425 0.023767384 -0.0610723 -0.029213259 0.056090754
0.061167233 -0.015992837 0.0035100314 -0.035314873 -0.05481024 -0.05945942 -0.048354976 0.0041836975
-0.057561666 0.03972308 0.022589963 0.03313259 0.05384359 0.04210722 0.030769257 -0.012592668
0.02683851 -0.02612387 0.023772148 -0.029253006 0.052166212 -0.03313671 0.04387856 0.045334682
0.021133719 -0.014714824 0.06235394 -0.056901317 0.053778335 -0.052833203 0.030764695 0.02324147
-0.03882047 0.04336584 -0.0013102855 -0.008578163 -0.034986783 0.056296803 0.048706155 0.011102751
-0.022218857 -0.043332886 -0.030928832 0.05800562 -0.0018097999 0.030667605 -0.06466258 -0.03931565
-0.03295491 -0.014654137 0.05886142 0.041141935 -0.040090337 0.021515876 0.020888379 0.03203235
0.033243336 0.02176787 0.022392169 -0.0411184 0.002913679 0.015593991 -0.015477259 -0.05032692
-0.042175062 -0.024574598 -0.0037296743 -0.038661733 0.022797203 -0.05532052 0.041997835 0.033893574
-0.03194047 0.041745123 0.03510136 0.0057211095 0.020790936 -0.04727679 0.009131605 -0.015528933
-0.023029229 0.061259292 0.015682094 -0.06501981 -0.044669148 0.0019576275 -0.025645321 0.030233424
-0.031406093 0.012222464 0.017691277 0.010132658 -0.00055949367 0.018298728 -0.070252165 -0.04988559
0.04609596 -0.036907386 0.052375775 -0.0009933942 -0.027482316 -0.033330154 0.031152101 -0.05471577
0.009440453 0.060239576 -0.04210236 0.030081991 -0.0102064265 -0.015245899 -0.032131903 0.027896024
-0.051582318 -0.057328288 0.023215001 -0.000653742 0.012067954 -0.011380915 0.035821013 -0.056173805
-0.020370167 -0.04476731 0.060813155 0.04032535 0.017289246 -0.027859744 -0.045105595 0.0012545956
0.0023964036 -0.050735183 0.037580356 0.010395837 0.043907136 0.027869148 0.033494126 0.021972844
-0.028342215 0.012238688 -0.016875474 -0.058757927 0.002753082 0.041112293 -0.0017366493 0.0004137737
-0.038992543 -0.004738133 -0.042025167 -0.030191043 -0.025894077 0.038796566 0.009282846 -0.017702347
0.04211883 -0.040857136 -0.01320489 -0.03350077 0.0141939735 0.047895346 0.010840114 -0.018148554
-0.043554045 0.031289954 -0.031180104 -0.03699248 0.0439789 -0.04678988 0.029240537 -0.035913195
-0.023826359 -0.016128445 0.015361351 -0.056266937 -0.013224338 -0.0069524604 -0.03495037 0.018196885
0.051935855 -0.06381044 0.015335023 -0.010158154 0.0063421386 0.03982711 0.0024008423 0.0054909806
0.02056277 0.048929475 -0.029671371 0.020245034 0.0047673215 -0.051046494 0.045756306 -0.054391593
0.061339546 0.010599595 0.003831389 -0.0075673135 0.012731553 -0.016951289 0.035558864 0.021450145
0.029074317 -0.009430544 0.047965027 0.019184384 -0.037533887 -0.047546547 -0.04395883 0.059973568
-0.029145185 0.0009654806 0.0069800294 0.008925209 0.012472025 -0.023811346 -0.029432101 -0.043775152

embedding/user_embeds_var:0 f4 [944, 16]
00000000: 9a4f ab3d ab4a 88bc 6117 563d 44e5 15bd
00000010: 1c35 583d 4c41 f2bc e842 81bd ff62 26bd
00000020: 8893 91bc 9aaa 39bd bcaf bb3c f835 64bd
00000030: b1bf 7cbd 4948 323d 8766 963c a532 8a3d
00000040: f4cd 73bd b6ab f2bc edca 8c3d bfc4 d53c
00000050: 3647 b5bc d7ca 9d3d 5ed1 633d 010e 7ebd
00000060: 8197 a0bc a6f8 a8bd caae cb3c 0094 99bb
00000070: e7a4 b33c 386b 8bbd 308e 473c 024f 8b3c
00000080: 4127 2fbd d0ce 9a3d 228e 703d 1a76 24bc
00000090: 7183 37bd d25b afbc cbf3 683c 6f3a 293d
000000a0: 6a56 913d a9cc e53a b288 833d 899b 1b3c
000000b0: 90d2 8d3d 0283 f83c 1299 d33c 9520 933d
000000c0: ed2f fc3c 6044 82bd ce82 2fbd 143d 20bd
000000d0: 1f63 d83c 7377 6d3d d98f 523d 585d 04bd
000000e0: 60fe febc 5809 2e3c c208 6a3d 1162 4a3d
000000f0: 86a6 933d 6e6b a13c 582c 90bb f17b 26bd
00000100: 7eab c43c 30f1 18bd 7e80 953d 1f20 8cbd
00000110: 02af 203c 4ea8 3b3d b459 123d 5378 b9bc
00000120: 4486 043d 06cd 853b 570d 013d 505c 03bd
00000130: a6a4 04bd 1e82 eb3b bc4f ad3c 915d b0bd
00000140: d795 a83d bf67 603d daa0 503d 13e3 9a3d
00000150: 4714 0e3d ba52 913c 2b7d 61bd 2173 93bd
00000160: c6ef 263c 69fd a23d 4404 3c3d a685 0c3c
00000170: 4e78 4d3d 277d b73c 3f25 323d c349 123d
00000180: 9c98 a13d d360 813d d2ec d23c 84c4 6e3c
00000190: f375 67bd 78ba 1dbd 9f35 de3c b27f 893d
000001a0: 3a9b 8a3b 641a 6f3c 09af a3bc b3ae 963d
000001b0: 0ba1 2f3d 4ee9 1e3c c435 03bd 7cb2 903c
000001c0: 33b9 84bd 6103 bc3c 6a25 603d 29d8 3abd
000001d0: 10dc 9c3d a7a6 e4bb 6be1 563c 5218 8f3d
000001e0: e926 7a3c fdcd 523d e178 de3c 32cc 093c
000001f0: 4a98 6bbc 571e 3fbd 8c7f ec3c 6f1c 37bd
00000200: 2fed b53c f8fc ec3c f12b 583d 4827 b33c
00000210: 923a 6c3d 98d3 463d 4705 8cbd 9afa 723b
00000220: c99c 82bd 49d9 663d 4eb0 93bd 3652 7bbc
00000230: e70f 63bd f9a1 913d a173 82bc ba0c 08bd
00000240: af1f 04bd 4a27 25bd a022 763d e979 163c
00000250: e225 2ebd bacd 97bc 8e1f fbbb 0240 563d
00000260: b3c9 df3c d672 26bb a4d4 343d d848 21bc
00000270: b3da 273c 87fc 6c3d 7261 12bd a6b1 863c
00000280: 1bd6 423c c7c9 bd3b 1d2a 3abd 4b08 113d
00000290: c49a d93c 410d 4b3d 3a6d 36bb 051d 993d
000002a0: ccb7 9dbd f186 03bb 5ad0 39bd 5d1d adbd
000002b0: 95d8 433c ae3d 43bd 4688 a2bd 4f15 5cbd
000002c0: a585 553d 23f5 93bd a71a 06bd 4d79 bc3b
000002d0: d64e 7c3d 8621 e0bc 45e0 e8bc 8c85 443d
000002e0: f7a3 4ebb bb9d 91bd 7f98 a1bd 0961 babc
000002f0: f6e9 783d c1ac a63c 28f8 05bd 41f7 923d
00000300: c08d 4cbd 69e0 bd3c a6c3 cf3c a82e 7c3d
00000310: ed20 78bd 2c8a b63b 205f 683d 0d21 543d
00000320: 340e c9bc 9d76 20bd 07ee 493d 7ef9 5d3d
00000330: 5d40 483c a200 c33c a11d b83c ee98 333d
00000340: 4aec c63c a95c a1bb f68b d8bc 7e6c 1e3d
00000350: 293f a53d cd97 893d 2c0a 9a3d 8805 48bd
00000360: 158a 88bd 003b 42bb 1ef4 02bd e5d3 b3bc
00000370: 4009 093d f4dd 79bd 9659 5a3d 92c0 023d
00000380: 5d74 98bc c96b 633d 33f3 16bc 99e3 bdbc
00000390: eeb0 2f39 d146 443b 909c 6fbd 389d 88bd
000003a0: 3227 653b 77b2 53bc b696 4d3c c20f 71bd
000003b0: 2e89 1d3d 6b9b 723d 822e 0fbc 9905 f2bc
000003c0: f46b 8d3d 7917 b13c 3b45 313c 9b6a 133d
000003d0: 4ea8 293b 7f6e b4bc 9042 9437 ff04 233c
000003e0: 7613 5f3c fd36 af3d bed1 943c 2cb9 6ebd
000003f0: f864 73bd af01 073d 5335 5eba 4850 9b3d
0.08364792 -0.016637167 0.05226839 -0.036595598 0.052785024 -0.029572152 -0.063115895 -0.040621754
-0.017770544 -0.045328714 0.022910945 -0.05571553 -0.06170625 0.043525968 0.018359436 0.06747941
-0.059522584 -0.029622894 0.068746425 0.026094792 -0.022128683 0.07704704 0.05561959 -0.062025074
-0.019603493 -0.08250551 0.02486362 -0.0046868324 0.021929218 -0.0680756 0.012179896 0.017005447
-0.042762045 0.075589776 0.0587293 -0.010037923 -0.044803087 -0.021406088 0.014218281 0.041315492
0.0709656 0.0017532307 0.06422557 0.009497532 0.06924927 0.030335907 0.025829826 0.07183949
0.030784572 -0.06360698 -0.042849354 -0.03912075 0.026414452 0.057975244 0.051406715 -0.032315582
-0.031127155 0.010622345 0.05713726 0.04940993 0.07209496 0.019704547 -0.0043998174 -0.040645543
0.024007555 -0.03733939 0.072998986 -0.06842064 0.00980735 0.045814805 0.03573008 -0.022640383
0.03235461 0.0040832786 0.031506862 -0.032070458 -0.032383583 0.007187142 0.021156184 -0.086115964
0.08231705 0.05478644 0.05093465 0.07562842 0.034687307 0.017739642 -0.05505101 -0.071996935
0.010189002 0.079584904 0.045902506 0.008576786 0.05016356 0.022398544 0.043492552 0.035714876
0.07890436 0.06317296 0.02574769 0.01457322 -0.05650897 -0.03850791 0.027125178 0.06713809
0.00422993 0.014593694 -0.019980924 0.0735754 0.042878192 0.009699179 -0.032033697 0.017663233
-0.064806364 0.02295083 0.05472318 -0.045616303 0.07659161 -0.0069778743 0.013115267 0.069870606
0.015268066 0.051465977 0.027157249 0.0084105 -0.01437957 -0.046659794 0.028869413 -0.04470485
0.022207825 0.028929219 0.05277628 0.021869317 0.057673045 0.048541635 -0.06836944 0.003707564
-0.06377561 0.056359563 -0.07211362 -0.015339425 -0.055435088 0.07110972 -0.015924277 -0.033215262
-0.03225678 -0.040320672 0.060091615 0.009184339 -0.042516597 -0.018530715 -0.0076636737 0.052307136
0.027317857 -0.0025398037 0.044148102 -0.009844027 0.010245013 0.057858016 -0.035737462 0.016442131
0.011891867 0.005791876 -0.04545032 0.0354083 0.026563056 0.049573187 -0.00278361 0.07476238
-0.07701072 -0.0020069445 -0.045364715 -0.08452866 0.011953493 -0.047666244 -0.07936148 -0.05373126
0.052129406 -0.072244905 -0.03274026 0.005751765 0.06159862 -0.027359735 -0.028427253 0.047978923
-0.0031530836 -0.07110163 -0.078904144 -0.022751348 0.060769998 0.020346047 -0.032707363 0.07176066
-0.04993987 0.023178296 0.025361847 0.061567932 -0.060578275 0.0055706706 0.056731343 0.051789332
-0.024542905 -0.03917562 0.049299266 0.054193012 0.012222377 0.023804013 0.022475066 0.043847017
0.024282593 -0.004924376 -0.026433926 0.038677685 0.080686875 0.06718407 0.075214714 -0.0488334
-0.06666962 -0.0029637218 -0.03197109 -0.021951625 0.033456087 -0.061002687 0.053308092 0.03192193
-0.018610174 0.055522714 -0.009213257 -0.023179816 0.00016755212 0.0029949436 -0.05849892 -0.06670612
0.003496599 -0.012920967 0.012548139 -0.05885292 0.038460903 0.05923025 -0.008739116 -0.029543685
0.06905356 0.021617638 0.0108197285 0.03599034 0.002588767 -0.022025345 1.767397e-05 0.009949922
0.01361548 0.0855541 0.01816642 -0.058282062 -0.059422463 0.03296059 -0.0008476574 0.07583672

embedding/item_embeds_var:0 f4 [1614, 16]
00000000: 38ee 7b3c f547 2ebd 31c2 12bd 3d50 01bd
00000010: 67ad c0bc 7ba1 2dbd 440c 7bbc ec28 9bbc
00000020: c36c b9bc 55e4 55bd 8cc3 05bd e351 1fbd
00000030: fdfa 47bd 1111 75ba 144d 043d 2535 e03c
00000040: 946d 65bd e386 8cbd e212 86ba 76b2 e1bb
00000050: 7e40 a0bc 67b9 34bc 8096 5dbd e67b 49bd
00000060: f328 2e3c 5f1a 86bd 5385 483c f27a 15bd
00000070: 2d81 b6bc a9bf 82bd 2242 b5bc 70f1 78bd
00000080: 8d79 443d 8f9b 41bd 0a0a 27bd 4c25 b73b
00000090: 2247 02bd a5b1 b4bb 273a 1cbd e864 16bd
000000a0: 662c 313d 234a 393c 0dc0 74bd 9ea7 2c3d
000000b0: 7a18 01bd b9a3 4f3d abe2 5f3c 1349 2c3d
000000c0: 1186 40bb e7a0 1abd f351 6f3d 9704 04bd
000000d0: 81cc 36bd 845a af3b aaf0 18bd 4860 423d
000000e0: 926c bdbc 0fae 2bbd f093 be3c d5ce 4b3d
000000f0: 8832 f1bc 9059 44bd fdc1 333c 77f3 d73c
00000100: 0f3f 66bd 22d3 a23c e548 d0bb 86f9 5d3d
00000110: daf3 723c f7de dcba 7e6d 4d3c 16bd d2bc
00000120: 2c1a 1dbd 818a 123d 0fad 453d b932 9fbc
00000130: f420 27bc 5a39 03bc d261 103d d0e9 2dbc
00000140: ab1e f4bb 1251 23bd 5f8a 94bc 91b3 1bbd
00000150: 44fd efbc 553a 9dbc b066 72bd 5f50 423d
00000160: 0cec 6f3d 71b0 b83c 2a2b a0bc 153c bc3c
00000170: 01a2 7a3c dd04 673c 95b1 55bd 0c5a bbbc
00000180: 1111 37bc a298 3a3d b87d 13bd 0b46 4fbc
00000190: 3e60 90bc fca8 823d 70b8 533c b890 8a3d
000001a0: b71d 10bd a67d 02bd caf5 13bd 12c8 99bc
000001b0: d5c6 773d b948 a9bc 139e 96bc aaa6 46bc
000001c0: bb44 4b3d 78a6 bfbc c921 13bd 8f92 54bd
000001d0: 040f dcbc 9f0c 843d ec29 debc 6466 553d
000001e0: 709d 32bc 8c06 d73b 412d 47bd 4fca a13c
000001f0: 2914 38bd 0de5 4cbd a528 75bc ea5f 0abc
00000200: bd57 7dbd 7e0f 69bd 9dfa d03c bff5 413c
00000210: dbdc 193d 012f d33c 11af 14bc 9225 f9bc
00000220: 8844 ddbc 7c9e 843c 131d 1abd c633 e43c
00000230: 7003 723c 6b55 563d a806 e6bc 385a 87bd
00000240: 0576 6a3c aaaa 733c cae8 60bd 9fda 153d
00000250: 868d e13b bb20 423d 3f9c 393d b545 85bc
00000260: f5e5 63bd b27b 153d f714 30bc 7961 03bd
00000270: 2b07 94bc 8aeb 0ebd 561b 5bbd 5486 af3c
00000280: 06d9 33bd 2675 d9bc b979 083d 7852 15bc
00000290: cece 31bd 5056 42bc 18aa 0abc 88ad d1bc
000002a0: 75ea 573d 1625 00bd 5269 a13c 7a0d d2bc
000002b0: b890 473d 0775 babc 3a8f 3fbb d660 913c
000002c0: 80cf 1cbd 3570 4bbc 899b 513d c4ac 073b
000002d0: 38e9 32bd 2943 123c a6d7 803d e512 e23c
000002e0: c6e8 b23c e33a 563b 48d1 40bd 1c0b 12bd
000002f0: 9098 5d3d 5502 07bc 0c8e 593d 2439 b5bc
00000300: 2523 3bbd 087a 733c 2f6c 263b 6fc5 abbc
00000310: e46d 4abc cad5 5dbd 45b2 12bd 2463 d83c
00000320: f90b 073d 4f6d 6a3d 1d80 d3bc 8291 4cbd
00000330: e083 44bd 7928 6b3c b0b6 593c fdb7 23bd
00000340: 3c6c 67bd 991e 38bd 969e 05bd 5e0a 0a3d
00000350: dd17 4c3d f886 a5bc 92ee d9bc f309 79bc
00000360: 2cf3 153d 3b41 8dbd ae01 ae3c 924f 44bd
00000370: 60e7 4c3d 706a 623d 9e84 89bd 2534 363d
00000380: 3854 6fbd 3738 063c 2c90 e2bc 47e5 59bd
00000390: 70e6 07bd f4f3 e1bc 4043 863b 01c5 763d
000003a0: ce02 c3bc 9657 69bd 7760 f53c 3205 04bd
000003b0: 7294 09bc 00ac 3e34 65ef 103c ba88 dabc
000003c0: 50b0 b73b 92ae b2bc 70f1 dd3b a564 0a3c
000003d0: 211f 273d 6995 353d d037 07bd 64f1 ee3c
000003e0: 7db7 623d 0e73 3abd fd37 83ba 4c89 4cbc
000003f0: 3976 56bc 2414 6fba c956 253d fb3d 383d
0.01537662 -0.042549092 -0.035829727 -0.03157066 -0.023520185 -0.042390328 -0.015322749 -0.018940412
-0.02263487 -0.052219708 -0.03265719 -0.038896453 -0.048823345 -0.00093485514 0.03230007 0.027369091
-0.056012705 -0.06861665 -0.0010229016 -0.0068877293 -0.019562002 -0.0110305315 -0.054098606 -0.049190424
0.01062988 -0.06547999 0.012238818 -0.036494203 -0.022278393 -0.063842125 -0.022126261 -0.060777128
0.047967482 -0.047267493 -0.04078106 0.005589163 -0.03180612 -0.005514341 -0.038141396 -0.036717325
0.043255232 0.0113091795 -0.059753466 0.04215204 -0.031517483 0.050693247 0.013664882 0.042061877
-0.0029376785 -0.037751105 0.058427762 -0.03223094 -0.044628624 0.0053513665 -0.03733889 0.047455102
-0.02312306 -0.041914042 0.023263901 0.049757797 -0.02944304 -0.047936976 0.010971543 0.02636121
-0.05621248 0.019876067 -0.006356346 0.054193042 0.014828647 -0.0016851117 0.012538312 -0.025724929
-0.038355038 0.03577662 0.048260745 -0.019433366 -0.010200728 -0.008009279 0.03524954 -0.010614827
-0.007449945 -0.039872237 -0.018132387 -0.038013045 -0.029295571 -0.019192854 -0.05917996 0.04743993
0.05857472 0.022545071 -0.019551832 0.022977868 0.015297414 0.014100281 -0.05217131 -0.022870086
-0.011173503 0.04555572 -0.036008567 -0.012650977 -0.017624017 0.063798875 0.012922391 0.06765884
-0.03518459 -0.03185811 -0.036123075 -0.018772159 0.060492355 -0.02066456 -0.018385923 -0.012124697
0.049626093 -0.023394808 -0.035920892 -0.05189758 -0.026862629 0.0644772 -0.0271196 0.0520996
-0.010901794 0.0065620597 -0.048627142 0.019749789 -0.0449411 -0.050023127 -0.014963304 -0.008445719
-0.061851252 -0.05689954 0.025510127 0.011838376 0.03756414 0.02577925 -0.009074942 -0.030413423
-0.027010217 0.016188852 -0.037625384 0.027856719 0.014771327 0.052327555 -0.028079346 -0.06609005
0.014310365 0.014872232 -0.054909505 0.036585446 0.006883326 0.047394495 0.045315024 -0.01626859
-0.055639226 0.03649492 -0.010747186 -0.03207538 -0.018069824 -0.034892596 -0.053492866 0.021426357
-0.04390814 -0.026545119 0.03331921 -0.0091139 -0.043410115 -0.011861399 -0.008463405 -0.025595441
0.05271383 -0.031285368 0.019703541 -0.025641192 0.048722 -0.022760881 -0.0029229657 0.01774637
-0.038283825 -0.012416889 0.05117372 0.0020702342 -0.043679446 0.008927145 0.06291132 0.0275969
0.02183951 0.0032688908 -0.047074586 -0.035655126 0.054100573 -0.008240302 0.053113982 -0.022121973
-0.045687813 0.0148606375 0.0025394072 -0.020968167 -0.0123553015 -0.054158963 -0.035814542 0.026414461
0.032970402 0.05723315 -0.025817925 -0.049943455 -0.04797733 0.014352911 0.013288185 -0.039970387
-0.056499705 -0.044951055 -0.032621942 0.033701293 0.049827445 -0.02020596 -0.026603017 -0.015200126
0.03660886 -0.06897207 0.021241035 -0.047927447 0.050025344 0.055277288 -0.06714748 0.044483323
-0.058429927 0.008192114 -0.027656637 -0.05319717 -0.033178747 -0.027582146 0.0040973723 0.06024647
-0.023805048 -0.056968294 0.029953225 -0.032231517 -0.0083972085 1.7757702e-07 0.008846139 -0.026676524
0.005605735 -0.021811757 0.0067731664 0.008446847 0.04080117 0.04433194 -0.03301221 0.029167838
0.05535077 -0.04551988 -0.0010011193 -0.012483906 -0.01308971 -0.00091201277 0.040365968 0.044980984

embedding/sparse_linear_var:0 f4 [82]
00000000: 5533 4fbe 0a66 403e b0d4 ecbb cad8 28be
00000010: 0eb4 07be 889e 08be 188f 9e3d e14c 08bd
00000020: 80a2 f33c 7d27 f2bd b800 c8bd 1fba 103d
00000030: ebbd ecbd 37c4 223e 62c1 01be 65b4 f4bd
00000040: e7bf 213e 99e3 89bd fa56 823d d931 c3bd
00000050: a52a 9e3d df14 48be 76b4 36be 883a fe3d
00000060: 0a8a 26bd df0c b43d b393 d43d 4950 c43d
00000070: 3f3f 04be e6f1 8a39 c6f9 83bd 3d6f 2c3e
00000080: 20a2 c7bd 5a3c 113d 4a3d 3f3e c066 9ebb
00000090: 144a ba3d e069 07be 9d48 c2bd 2e8e e8bd
000000a0: fa61 563d d1e6 843d ce17 703d 006c 003e
000000b0: e185 2a3e f078 153e d0b2 553d 990a 263d
000000c0: b4de 3d3d e44b f8bd 3354 1a3e 0872 713c
000000d0: 7397 c33d 5e6a 043e 1836 e63d 67e8 86bd
000000e0: b571 36be e8e5 f9bd 8111 743d 62eb 28be
000000f0: 04ce 57bd 6436 ea3d 7981 fabc 0696 2b3d
00000100: 8ba8 2abe 93ee 473e 4030 6a3c 8687 c23c
00000110: 3bd3 9b3d 1c75 4c3d 4b8b 7f3d f5b9 203d
00000120: a022 503d 5b5c babd 15ce d8bd 3895 c9bd
00000130: b267 463d 42bd 9fbc 2212 6d3c 1b8b b0bc
00000140: 35e5 d03d 6ec2 243d
-0.20234425 0.18788925 -0.0072275028 -0.16488948 -0.13252279 -0.13341725 0.07742137 -0.033276442
0.029740572 -0.11823938 -0.09765762 0.03533375 -0.115596615 0.15895163 -0.12671426 -0.1194847
0.15795861 -0.06732864 0.06364246 -0.09530992 0.077229775 -0.19539212 -0.17842278 0.12413508
-0.040658988 0.087915175 0.10379734 0.09585626 -0.12914751 0.0002650164 -0.06444125 0.16839309
-0.0974772 0.035457946 0.18675724 -0.004834026 0.090961605 -0.13223982 -0.09486506 -0.113552436
0.05233953 0.06489337 0.058616452 0.12541199 0.16652633 0.14596915 0.052172482 0.04053745
0.046354964 -0.1212385 0.15071182 0.01473666 0.09550371 0.12931201 0.11240786 -0.06587296
-0.17816813 -0.12202054 0.059587006 -0.16496041 -0.052686706 0.114361554 -0.030579315 0.04189112
-0.16665857 0.19524603 0.01429373 0.023746263 0.076086484 0.04991637 0.0623887 0.039239842
0.05081427 -0.09099647 -0.10586182 -0.09842914 0.048438735 -0.019499425 0.014469655 -0.021550706
0.10199968 0.040224485

embedding/sparse_embeds_var:0 f4 [82, 16]
00000000: b38f 7fbe 9f11 3dbd c6b8 cebd bfa0 b83d
00000010: b1a1 343e 5d30 15be dd69 f63b 74cb abbd
00000020: 20ca 34be cbb3 32bd d7aa 353e 4336 573e
00000030: 0360 3a3e 9f07 1bbe 80f9 393e 6e22 1bbd
00000040: 25d3 32bd b983 17be 1edd efbd a5c6 60be
00000050: 4690 3cbe b24b 90bc d71a 793e 0d39 603e
00000060: 6979 5bbe e020 8a3d 3a86 8dbc 40fd 1d3c
00000070: fbb6 24bd 77b1 f1bd 0a62 513e eacf f9bd
00000080: 3e22 16be 21c8 c6bd f24a dfbd 4676 84bd
00000090: a0d2 7dbb d339 a7bd 1367 003e 5353 8a3d
000000a0: c421 48be ea1b 433c 10fa a33d 1716 e13d
000000b0: 4432 913d 2df0 09be c5ad 453e 90b0 a3bd
000000c0: fa64 6abe 3f98 1c3e 9095 30be f8ae 3abe
000000d0: 9fe2 cd3c 2621 e5bd 4659 00be 9d06 68be
000000e0: f9ec 2b3d b191 0ebe e97c c23d a8a3 4c3e
000000f0: 149a 91bc 3980 5bbe 63b0 253d ebb6 52bc
00000100: a8c7 0fbe 7b71 f3bd 1b85 dabd da38 ac3c
00000110: aa2d 343e 91a3 dcbd 5e9d 193d 5b2f 3e3e
00000120: 230c cebc 5570 1c3d a0bb e93d 948d 063e
00000130: 45e7 e63d 081a 38be 3ede 343e 43bf 11be
00000140: f7e0 743e ce55 36be a88d 97bd 8cdc 9fbd
00000150: e854 5dbb d30a 4f3d 08d0 d4bd 97d7 5d3b
00000160: dfa5 163d 2736 253e 89d3 30be 8c8e 0f3d
00000170: c962 98bd b429 103d 8c82 b23d 398c 6fbc
00000180: bec7 53be 30e8 11be d504 933d aa11 523e
00000190: e68e 473e a73b 183e d9dd 5f3e 0db4 39be
000001a0: 00b8 4f3e 4663 82be 48c2 e83a 789a a7bd
000001b0: 42b5 ea3c 5a4b 73be 91c2 19be d63c 65be
000001c0: 4c02 da3d 6514 873c 34b5 05be e051 aa3d
000001d0: fbec 323e 439a 7f3e f350 aebd 04e0 363e
000001e0: e685 433e 3542 8dbd 030c f73d 140e 3e3d
000001f0: 8a72 5dbd 60f0 41be 32d4 68be 414f 3e3e
00000200: 7846 4b3e 8559 7dbd 2c74 ca3d 7968 773d
00000210: ab33 10bd e8c6 d83d 5e30 363e 8db9 21be
00000220: f310 40be 2086 4abe d9cc 06be d153 8a3d
00000230: b210 bdbd 8ed3 463e 7384 823e c9e0 e4bc
00000240: 9143 17be 19a5 53be 9161 773d c6e0 123e
00000250: 52a8 0fbe 5b73 23be 7433 8a3d caf5 20be
00000260: aeaf 20be d803 1dbe 2f3c 453e b0a6 27be
00000270: 4377 0c3d 5ec1 313e 6f3b f43d df86 133c
00000280: f710 063c 3737 45bb f409 563e 9fe1 583e
00000290: f7e1 3ebd 6376 cebd 01ea 55be 52f3 67be
000002a0: 1274 ecbd c9bd 3fbe e87d 71be 3b83 4a3e
000002b0: 9338 593c b55d 34be c18d b73d 0aad e13d
000002c0: f811 043e 73df 493d 0975 553d 1969 11be
000002d0: 65a1 3d3e 398b 44be 53e8 1c3e 86b7 e0bc
000002e0: 592d 77bd 848c 18be 85b5 42be 4ad3 293e
000002f0: b4b0 52be a13a 173d cef1 1f3d 7676 a5bd
00000300: 9f15 52be 8011 2b3e e5e8 303e a3c5 44be
00000310: 080a 813e f6a6 413e a802 44be b31c e1bd
00000320: 04b8 4ebe c49f 833d 3c75 08be 84aa d93c
00000330: 452b 573e db02 a2bc 7338 22be 0ad9 333e
00000340: 4f65 40be 97d5 33be 713f e0bc 4157 5bbe
00000350: 460f 6a3e 85c5 663e 07ce 3fbe 40b2 123e
00000360: 2a7a 60be cbf9 483b 990a 5abe 38e1 773e
00000370: d09a 453e 8b4f a7bd 48e1 4c3e 9525 563e
00000380: 095e 343e 20a1 263e fa40 b8bb e606 463e
00000390: c327 713d 5538 453d bf24 493e af91 86bd
000003a0: fbae 54be 5637 3f3e 36af 67be 02a4 0e3e
000003b0: 31f5 cb3d 5888 dc3c 1859 563e c7d6 babd
000003c0: 3d56 c7bc 951b 3b3e d28c 013c e9e3 e3bd
000003d0: b989 aebd e3e1 c1bd cceb d7bb 109e fd3d
000003e0: 145c 20be 9b46 743e b709 703d 6a14 833d
000003f0: 26f7 45be 22df 5bbd a3aa 1bbe 48f7 1b3e
-0.2495716 -0.046159383 -0.100938365 0.09015035 0.17639805 -0.1456923 0.007519944 -0.08388415
-0.1765523 -0.043628495 0.17740951 0.21016793 0.18200688 -0.15139626 0.18161583 -0.03787463
-0.043658394 -0.14796342 -0.11712097 -0.21950777 -0.18414411 -0.01761422 0.24326645 0.21896763
-0.21433033 0.06744552 -0.017275918 0.009642899 -0.040213566 -0.11801427 0.20447555 -0.121978596
-0.146615 -0.0970614 -0.109029666 -0.06467871 -0.0038730279 -0.08165326 0.1253932 0.06754174
-0.1954413 0.011908511 0.0800668 0.109905414 0.070896655 -0.13470526 0.19304569 -0.07992661
-0.22890082 0.15292452 -0.17244554 -0.18230808 0.025132475 -0.11187963 -0.12534055 -0.22658773
0.04197404 -0.13922764 0.09496481 0.19984305 -0.017773665 -0.21435632 0.04045142 -0.012860994
-0.14041007 -0.11886879 -0.10669919 0.021023203 0.17595544 -0.10773385 0.037503593 0.18572752
-0.025152272 0.038193066 0.1141274 0.13139945 0.1127458 -0.1797868 0.17662904 -0.14233117
0.23913942 -0.1780617 -0.07400066 -0.07805738 -0.0033772532 0.050547432 -0.10391241 0.0033850425
0.03677928 0.16133939 -0.17268194 0.035048053 -0.07440717 0.03519602 0.08716306 -0.014620834
-0.20681664 -0.14248729 0.07178656 0.20514551 0.19488105 0.14866506 0.21861972 -0.1813509
0.20285034 -0.25466365 0.0017758096 -0.081837595 0.028650884 -0.23759213 -0.15015627 -0.22386488
0.10644969 0.016489217 -0.13057405 0.08316398 0.17473213 0.2496119 -0.085115336 0.17858893
0.19094047 -0.068973936 0.12062838 0.046400145 -0.05406431 -0.18939352 -0.22737196 0.1858492
0.198511 -0.06185295 0.09885439 0.060402367 -0.035205524 0.10584813 0.17791888 -0.15793438
-0.18756466 -0.19777727 -0.1316408 0.06754268 -0.092317 0.19416639 0.25491676 -0.027939217
-0.14771868 -0.20668449 0.06039578 0.14343557 -0.14029053 -0.15961973 0.06748095 -0.15718761
-0.15692016 -0.15333498 0.1926124 -0.1637218 0.034293424 0.1735892 0.119253986 0.009004324
0.008182756 -0.0030092725 0.20902234 0.21179818 -0.046602216 -0.10081174 -0.20890047 -0.22651413
-0.11545576 -0.18724741 -0.23583186 0.19776623 0.013258117 -0.17613871 0.08962584 0.11019333
0.1289748 0.049285363 0.052113567 -0.14200248 0.18518598 -0.19193734 0.15323 -0.02743126
-0.06034598 -0.14897352 -0.19014557 0.16584507 -0.2057522 0.036921147 0.039048962 -0.08079235
-0.2051606 0.16705894 0.17276342 -0.19216017 0.25202966 0.18911347 -0.19141638 -0.10991802
-0.20187384 0.06426957 -0.13325971 0.026570566 0.210126 -0.019776752 -0.15841846 0.17563263
-0.18788646 -0.17561947 -0.027374001 -0.21420003 0.22857389 0.22536285 -0.18730937 0.1432581
-0.21921602 0.0030666466 -0.21293105 0.24207008 0.19297338 -0.081694685 0.20007813 0.20912774
0.17613997 0.16272402 -0.00562298 0.19338569 0.05887581 0.048149426 0.19642924 -0.06570756
-0.20769875 0.18673453 -0.22625431 0.13929752 0.09958876 0.026920483 0.20932424 -0.09122997
-0.024333114 0.1827224 0.007907109 -0.11127455 -0.08522362 -0.094669126 -0.0065893885 0.12383664
-0.15660125 0.23855059 0.058603015 0.06400378 -0.19332561 -0.053679593 -0.15201811 0.15231049

embedding/dense_embeds_var:0 f4 [1, 16]
00000000: 263b e43e 2106 393e ad9c 163f 4aea ee3e
00000010: 89b8 883e f0c2 e5be b8ac 093e be7b e2be
00000020: 7294 d03e 6614 13bf 3858 aebe e161 13bf
00000030: 5e10 853e c69c c03c 1439 8c3d ee52 643e
0.44576377 0.18068744 0.5883282 0.46663123 0.2670329 -0.44875288 0.13444793 -0.44235033
0.40738255 -0.57453 -0.3405168 -0.57571226 0.2598905 0.023512255 0.06846824 0.2229726

dense/kernel:0 f4 [24, 1]
00000000: 3b4f 3c3e 0d65 ebbe fd8b 08be 2a5e 6ebe
00000010: dd2f 833e 661d efbe 3fa7 7dbe bf3e b43e
00000020: 7787 803e b5a8 fcbd d8e2 b1be 3310 bd3d
00000030: 53b8 d83e 37ab aebd 58aa ae3e 3e33 dbbe
00000040: 295b f33d 6f96 4e3e 8a56 04be 48bb 273e
00000050: d006 35be f8be e1be 1e0e d7be be88 0ebe
0.18389599 -0.45975533 -0.13334651 -0.23278108 0.25622454 -0.46702117 -0.2477083 0.3520412
0.2510335 -0.12336866 -0.3474338 0.092316054 0.42328128 -0.085287504 0.34114337 -0.42812532
0.11882622 0.20174573 -0.12923637 0.16380036 -0.1767838 -0.4409101 -0.42002958 -0.1391935

mlp/mlp_layer1/kernel:0 f4 [384, 128]
00000000: dd47 833d b50a 3ebc 884e ca3c f848 a4bd
00000010: c79f a7bd cb39 dabd 02ce 94bc 8468 e93c
00000020: 5ebf 2d3d 109b aebd a098 24bd e3a9 9d3d
00000030: f6d0 02bd 772e a83d cc03 8ebc 4e5a c1bd
00000040: 8cd3 3fbd 85b4 c63d 643d 8bbc 4f05 9fbd
00000050: a4d9 de3d 5150 35bd 64b3 c83c d9ab 94bd
00000060: cfdf dfbd 9e89 27bb f603 933d 3a66 603d
00000070: 252c a93d da9f 94bd 7613 0cbd e316 9d3d
00000080: 162b 493d 343d bbbc 28fc c23d 8806 3b3a
00000090: 18e3 833d 05b5 e03d 6f68 ce3b e0d3 003c
000000a0: 0245 bcbd 3816 0abc 8eb8 a73c a9dd b1bd
000000b0: 3fd7 83bd a183 be3d 012a 873c f870 87bd
000000c0: f81e 813c b0a9 883b a95c 65bd c0c1 76bc
000000d0: 3b92 723d f708 b23d 682a 763c da31 063d
000000e0: c0f6 f3bb 8c93 7f3c d641 483d ba7f 55bd
000000f0: f1c0 773b 7275 65bd 4e8c 2c3d 1b52 b7bc
00000100: d468 23bd a080 91bb 9a0f 073d 1261 2abd
00000110: 35de 90bc 7629 263d 00c8 7abd b887 c7bd
00000120: 2af8 e0bd 6083 613b 73e0 b83d 9a80 443d
00000130: 004b a63c de44 28b9 231d f73c 3a7d afbd
00000140: 3ff9 a5bd 2ab5 053d de34 963d c677 43bd
00000150: 00e0 a53d 53d3 b6bc f0b3 9abc 7e0d 2a3d
00000160: f530 65bd a62d 7c3d 77b1 ad3d 21b6 373d
00000170: 9013 e03d 5544 bf3d e7dd 49bd e083 62bc
00000180: 26e8 a3bd 0880 94bc ba66 243d a086 aabb
00000190: de3f 3bbc 5393 c83d ec6e 363d 7e64 e6bd
000001a0: d919 b03d 6e42 1abd 5b85 52bd 0add 3e3d
000001b0: e125 8d3d 149d 643c 1a56 073d fbe4 a6ba
000001c0: ea5a 7d3d caa4 4f3d c714 c3bd 66ee 98bd
000001d0: ce61 643d 9ad9 dc3d 579e 19bd f84d bebd
000001e0: 5100 a03d 1fb6 983d b72d b8bd 3be4 a43d
000001f0: f6f5 98bd a088 0ebb 2960 cbbd 4569 993b
00000200: 0f0b d83d 0679 01bd 8b65 89bd 9d0d 823d
00000210: 42ec ca3d b87a d2bd 7ae5 c83d 8149 a63d
00000220: 6174 cebd ace7 66bd 2375 bcbd 2c4c ed3c
00000230: ee3e 1bbd c14c d73d d0a4 30bc e919 bb3c
00000240: 7e4f a8bd 76a6 afbd 2e1a 2f3d 3a0c c1bd
00000250: 15a0 243d 9193 abbd 0669 92bd 37b2 923d
00000260: 9880 5b3c 2e8b 2dbd 5574 213b ab99 a33d
00000270: 6e37 acbd d704 d43d 6c1f 67bd 8480 44bd
00000280: 4074 333c e1e4 1d3d e63f bdbd 0417 20bd
00000290: c747 3f3d 22f5 7f3d 39be b63c 9ed5 183d
000002a0: 983b c4bc bfd1 5b3d a686 41bd 642d bb3d
000002b0: 8faf 93bb a925 94bd f6f8 f6bb 6e33 abbc
000002c0: dbde 90bd bf59 43bd 511f b6bd 838a 73bd
000002d0: 2391 bf3d 3fdf b33d 8082 edbc 38de b8bd
000002e0: 061d 653d 26db dcbc 60cd 45bc 423b 1abd
000002f0: a41e db3d d7f0 a43d 2898 193c f7ab c3bd
00000300: c4d7 c63c 63b3 8ebd 9013 03bd c0c2 be3b
00000310: efbd e2bc 26cf 0e3d 413e 8d3d ebc0 7b3d
00000320: 472b 483d 2190 cb3d 4019 e73b 0730 bbbd
00000330: 8d50 47bd 6779 e03c f9ec aa3b 7f01 61bd
00000340: d855 9dbd b88b e8bc 2f1f 633d 6e17 febb
00000350: 1e35 aebc 9626 97bd ec54 c2bd 9778 d43d
00000360: d522 43bd 1e41 d2bd 24d5 aabc 482a 8f3d
00000370: 654d 8abd 09ca 433d 58a8 8ebc 5a59 38bd
00000380: e519 bc3d b5af b03d a75d b83d 2459 9abd
00000390: 1ecf 72bd 6880 d1bd 3be7 a6bd 9ea2 94bd
000003a0: 1475 a9bd c792 c2bd 549a 52bd a685 2b3d
000003b0: 041e 57bd 3cb6 82bc b70e 8f3d 3fd3 4a3d
000003c0: e41c de3c f093 ca3c 6501 46bd 48d1 743c
000003d0: 386a c8bc bb8d 1f3d 40c2 1abd ddc7 09bd
000003e0: 1a25 cfb9 f912 d03d b20c 66bc 0090 9737
000003f0: 333d 8d3d 2751 ae3d 74b0 a23c 14e7 fe3b
0.06410191 -0.011599232 0.02469565 -0.0802173 -0.08184772 -0.106555544 -0.018164638 0.02849222
0.04241883 -0.085256696 -0.040184617 0.07698419 -0.031937562 0.082119875 -0.017335795 -0.094410524
-0.046832606 0.097024 -0.016997047 -0.077646844 0.108813554 -0.04426605 0.024499603 -0.0725934
-0.1093136 -0.0025564204 0.0717849 0.05478499 0.08260373 -0.07257052 -0.034198247 0.07670381
0.049113356 -0.022856332 0.09520751 0.0007134457 0.06439799 0.10972027 0.0062990705 0.007863015
-0.0919285 -0.008428149 0.020473745 -0.086848564 -0.06437539 0.0930245 0.016499521 -0.06613344
0.015761837 0.004170619 -0.05599657 -0.015060842 0.059221487 0.08693116 0.015024759 0.032762386
-0.0074451864 0.015599143 0.04889091 -0.052123763 0.003780421 -0.056020208 0.042125992 -0.022378018
-0.039894894 -0.004440382 0.032973863 -0.04159648 -0.017684082 0.040566884 -0.06122589 -0.09742683
-0.109848335 0.003441058 0.09027185 0.047974207 0.020299435 -0.00016047384 0.03016526 -0.08568807
-0.081041805 0.032643475 0.07334302 -0.047721647 0.08099365 -0.022317564 -0.018884629 0.041516773
-0.055954892 0.06156697 0.08481114 0.044851426 0.10941231 0.09339205 -0.04928389 -0.013825387
-0.08003263 -0.018127456 0.04013703 -0.005204037 -0.011428801 0.09793725 0.044539377 -0.11249636
0.0859868 -0.03766101 -0.05139671 0.046597518 0.068919905 0.013953466 0.033041097 -0.0012733036
0.06185428 0.050694264 -0.09525447 -0.07467346 0.055757336 0.10783692 -0.03750452 -0.09292215
0.0781256 0.07456612 -0.089930944 0.08051344 -0.07468788 -0.0021748915 -0.099304505 0.0046817386
0.10548984 -0.031609558 -0.06708821 0.06350253 0.09908344 -0.10277313 0.09809394 0.081194885
-0.10080791 -0.056373283 -0.092020296 0.028966986 -0.03790181 0.105126865 -0.010781482 0.022839503
-0.08218287 -0.08576672 0.042749576 -0.0942616 0.04019173 -0.083777554 -0.07148938 0.07162898
0.013397358 -0.04236906 0.002463599 0.07988294 -0.0840901 0.103524856 -0.05642645 -0.047974125
0.010953009 0.038548354 -0.09240703 -0.03908445 0.04669931 0.062489636 0.022307502 0.037313096
-0.023954198 0.053666826 -0.04724755 0.09139517 -0.004507012 -0.072337456 -0.0075370027 -0.020898547
-0.07073756 -0.04769301 -0.08892692 -0.059458267 0.093538545 0.08782815 -0.028992891 -0.0902676
0.055935882 -0.026959967 -0.012072891 -0.03765417 0.106992036 0.08053749 0.009374656 -0.09554284
0.024272807 -0.06967809 -0.032001078 0.005821556 -0.027678458 0.03486552 0.068966396 0.061463278
0.048869397 0.099396 0.0070525706 -0.0914002 -0.048660804 0.02740164 0.0052162376 -0.054933067
-0.07682389 -0.028386936 0.05544966 -0.007754258 -0.021265563 -0.073804066 -0.09488854 0.10374563
-0.04764064 -0.10266326 -0.020853586 0.069904864 -0.06753043 0.047800098 -0.017414257 -0.045007087
0.091846265 0.086272635 0.09002238 -0.075365335 -0.059279554 -0.1022957 -0.081495725 -0.07257579
-0.08274284 -0.09500652 -0.05141671 0.041875504 -0.05251886 -0.015956037 0.069852285 0.049517866
0.027113385 0.024728745 -0.048341174 0.014942475 -0.024464712 0.038953524 -0.037782907 -0.03363787
-0.0003950976 0.10159869 -0.014041113 1.8067658e-05 0.068964384 0.08511572 0.01985953 0.0077790115

mlp/mlp_layer1/bias:0 f4 [128]
00000000: 0000 0000 ff6b 1e3b 19a1 233b b842 1b3b
00000010: 0596 23bb b271 293b fa6a 18bb 34f4 1dbb
00000020: 0000 0000 0000 0000 0000 0000 0000 0000
00000030: 0000 0000 0000 0000 0000 0000 7e13 a43a
00000040: b0ba 29bb 0000 0000 0000 0000 0000 0000
00000050: d18c 27bb e4ad 2a3b 0000 0000 f7c3 363b
00000060: 8b41 beba 0188 1bbb 7878 283b 0000 0000
00000070: 0000 0000 0000 0000 0000 0000 4bdd 023b
00000080: 0000 0000 972a 29bb 9861 273b 71e7 c53a
00000090: 5415 4c3b a54b 7fbb 5e28 2fb7 0000 0000
000000a0: 0000 0000 401d 8dba b687 2e3b bbdc 21bb
000000b0: 4cce c43a 87ab 253b e806 253b d249 b0b9
000000c0: 354e 253b 0000 0000 8f3f 183b 3a22 323b
000000d0: a6aa fb3a 0000 0000 0000 0000 0000 0000
000000e0: 0000 0000 49c9 28bb 0000 0000 0000 0000
000000f0: e4cb f43a 0000 0000 0000 0000 0c72 14bb
00000100: 1736 263b 0000 0000 0000 0000 0000 0000
00000110: 2f67 33ba 0000 0000 a884 3ebb ae9f 2c3b
00000120: 3b52 273b 0000 0000 0000 0000 0000 0000
00000130: ec5a 1d3b a873 84ba e451 233b 68a3 21bb
00000140: 9a7b 1abb 550e 1e3b 41b6 253b 5a02 d2ba
00000150: 40ac 1fbb 998c 1ebb 0000 0000 0000 0000
00000160: 1375 22bb 0000 0000 0000 0000 ac65 b4ba
00000170: 0c77 1bbb 5ab1 163b 3c71 2c3b 0000 0000
00000180: 0000 0000 0000 0000 0000 0000 0000 0000
00000190: 2610 26b9 d58a c838 3a74 0abb d953 2b3b
000001a0: 0000 0000 0000 0000 0000 0000 0000 0000
000001b0: eb05 013b f6a4 c0ba 0000 0000 c880 2dbb
000001c0: 0000 0000 4ec5 213b a471 69b9 0000 0000
000001d0: 0000 0000 6f44 f2ba b1b4 223b 2d73 28bb
000001e0: 5abe 1fbb 0000 0000 315b 6b3a 0000 0000
000001f0: 0000 0000 0000 0000 0000 0000 9a76 273b
0.0 0.0024173257 0.0024967848 0.002369089 -0.0024961245 0.0025855121 -0.0023257122 -0.0024101855
0.0 0.0 0.0 0.0 0.0 0.0 0.0 0.0012518016
-0.0025898628 0.0 0.0 0.0 -0.002556611 0.0026043588 0.0 0.00278878
-0.0014515383 -0.0023732188 0.002570657 0.0 0.0 0.0 0.0 0.0019968327
0.0 -0.002581274 0.0025540348 0.0015098882 0.0031140642 -0.0038955 -1.0440212e-05 0.0
0.0 -0.0010766163 0.0026631183 -0.0024698216 0.0015015095 0.002527924 0.0025181118 -0.00033624336
0.0025223617 0.0 0.0023231243 0.0027181045 0.0019200637 0.0 0.0 0.0
0.0 -0.002575474 0.0 0.0 0.0018676487 0.0 0.0 -0.0022650985
0.002536183 0.0 0.0 0.0 -0.00068436837 0.0 -0.0029070769 0.0026340294
0.002553119 0.0 0.0 0.0 0.0024010492 -0.0010105269 0.0024920637 -0.0024664048
-0.0023572207 0.002411743 0.0025285634 -0.0016022429 -0.0024364144 -0.002419269 0.0 0.0
-0.002478902 0.0 0.0 -0.0013763211 -0.002372208 0.0022993893 0.002631261 0.0
0.0 0.0 0.0 0.0 -0.0001583701 9.562603e-05 -0.0021126405 0.0026142506
0.0 0.0 0.0 0.0 0.0019687365 -0.00146976 0.0 -0.0026474465
0.0 0.0024684253 -0.00022262946 0.0 0.0 -0.001848353 0.0024826939 -0.0025703416
-0.0024374933 0.0 0.0008978127 0.0 0.0 0.0 0.0 0.002555287

mlp/mlp_layer2/kernel:0 f4 [128, 64]
00000000: 64fb 883d 3458 15bd 2aeb 963d 8427 1fbe
00000010: 0851 6b3d 73b7 123e c175 2dbe a07b 8c3d
00000020: 7928 d8bd 633b 313e 748c 133d 0ca9 383d
00000030: c854 de3c ae6b 20be 28d1 e13c 203c 783d
00000040: 444c 34bd 5c4c 5c3d fb1c 043e 992c 9fbd
00000050: 4848 dc3c 40b7 4bbb 6b67 1bbe 1003 bfbd
00000060: ed19 e2bd da29 79bd b70f 0cbe 727b 8d3d
00000070: c4a9 31bd 1faa 25be a602 5fbd 9cc3 ebbd
00000080: d884 183d decf 8fbd ab9c 003e 88ce f03c
00000090: 4872 20bd ced8 cd3d 1a66 a13d 5a83 e33d
000000a0: 8f39 27be 508c bdbc 8caf 50bd e2d8 d63d
000000b0: d24e e03d 2035 dfbc 5cb0 0f3d 808b 87bc
000000c0: 9bbd 093e 1d24 c9bd 8c94 50bd aaa9 e33d
000000d0: d002 e63c 2669 a93d d58b 2ebe 253f aebd
000000e0: 5f3c d2bd b2a3 15be 6cf1 49bd 4237 c03d
000000f0: 40ca e8bc 6a91 c23d 68bc e73c 2c0b 323d
00000100: 100a b53c a1cf 303e 368a ec3d 9c0d 3abd
00000110: f0a5 2abd 2f2d 32be 35ff d43d 9569 9bbd
00000120: 84c5 753d 5291 0c3e 1f7f c73d 45f3 cfbd
00000130: 1408 893d b78c a8bd c4e1 133d d134 97bb
00000140: 9a08 32be ba95 fc3d d2b5 02bd 161f babd
00000150: ab56 2a3e 2e35 c73d 0c91 01bd 43ba e3bc
00000160: 4a43 21bc 615f 733d dc79 48bd 9a90 b1b6
00000170: d0d3 2bbe 8b61 10be c62e b23d 27a9 163e
00000180: 5f56 22be 577b 353e 9678 e43d 4f85 01be
00000190: 407d 143d 9c46 1a3d de1f db3d 11d5 2c3e
000001a0: a4b7 b7bd ac82 f6bd f94e 283e c63d da3d
000001b0: 6b30 243e 87b9 24be 5341 24be 7896 253d
000001c0: d4b9 6ebd 4c07 dabd 3f9e 113e 2350 853d
000001d0: d8a6 503d c7a4 8bbd ac42 8ebd b57e edbd
000001e0: ccc0 d9bd 3d82 a4bd 54da 813d 3bff 033e
000001f0: 3b32 a83d ecd6 0bbe e08f 803d 14c4 713d
00000200: b4e3 023e 3574 cc3c 0091 cbbb d449 17bd
00000210: e005 8b3d 306d 723c 62aa e7bd e691 d8bd
00000220: eda1 1ebe fc04 ae3d 83b9 0f3c 7c28 1c3e
00000230: d2a2 9c3d 0085 14be b530 13be 318b ec3c
00000240: 3b2c f93d 7416 3abd 4716 dc3a 816e 1c3e
00000250: 8424 ab3d eb69 933d 6afd 6abd ff06 2e3e
00000260: 04af 15bd 7a3a cb3c 00c0 9bb8 e737 9e3c
00000270: eaa2 fbbd 8473 18bd 4051 703d ee4f b43d
00000280: eddf 033e 3696 5ebd a351 9abd 8609 103e
00000290: 6c6f ce3d 468c af3d 5c4b a73d a544 34be
000002a0: 7350 1ebd c0bf d4bc 5081 743d 6c32 8a3d
000002b0: 6c7e e2bd f541 dbbd 9dc3 2dbe 64a3 23be
000002c0: e9eb 203e db19 b0bd 1f28 113e 7a3e 333d
000002d0: 4e1f 9c3d daed 09be 28a3 61bd ab77 523d
000002e0: 075c 7e3d 8d9d 5cbd 50a9 513c d599 253e
000002f0: a7e4 c33d e148 dc3c 85d7 7f3c 2e92 813d
00000300: da28 efbd e82c d93d 40cc 4e3d b4da 20be
00000310: 86a2 993d 009f a2bd 2d10 613d b0ee ad3c
00000320: 4073 443d 7f71 8d3d 4f8c 0f3e 2e7f 9dbd
00000330: b9dd a2bd 367d c53d 404a bf3d 7e0a a4bd
00000340: d5f6 2f3c 0281 ca3d ecb0 403d d2dc b8bd
00000350: c1cf 56bd 0330 0fbe 084a 8c3c 10a5 fbbd
00000360: 6cc6 8a3d 3b4e 123e 405a 2abc 3dd6 b83d
00000370: 59dd eabc 01f1 343e d090 20be 8b82 90bd
00000380: 3f4a 53bc cdc3 d53c 5b21 91bd 8a5d 2c3e
00000390: 8bca babc 8386 093e 4a2a 443c 6e11 183d
000003a0: f9e2 c7bd cb89 10be 007b 013d 03f5 2f3d
000003b0: c367 0cbe 24e1 4b3d 9be2 08be 6ca6 89bd
000003c0: 4208 db3d eefb a0bd ef20 2bbe 71b6 e2bd
000003d0: 304e 063c 9e0c d5bb c213 28be fcd7 b23d
000003e0: f4b4 143e 9286 bdbd e4ad d5bd 8fec eabd
000003f0: 1b78 30ba 6471 0e3d 015a 2e3e 6986 c7bd
0.06688574 -0.03646107 0.07369073 -0.15542418 0.057450324 0.14327793 -0.16939451 0.06859517
-0.105545945 0.1730781 0.03602262 0.04508309 0.027140036 -0.15666077 0.027565554 0.060604215
-0.044018045 0.05378376 0.1290168 -0.07772178 0.026889935 -0.0031084567 -0.1517617 -0.09326756
-0.11040101 -0.06083093 -0.1367787 0.06908311 -0.04337479 -0.16178177 -0.054445885 -0.11511919
0.037236065 -0.070220694 0.12559764 0.029395357 -0.039171487 0.10051118 0.078808025 0.11109038
-0.1633055 -0.023138195 -0.050948665 0.10490586 0.10952534 -0.027247012 0.0350803 -0.016546011
0.13451235 -0.09821341 -0.050922915 0.11116345 0.028077513 0.082720086 -0.17045529 -0.085081376
-0.10265421 -0.14613226 -0.049302503 0.093855396 -0.028416753 0.09500392 0.028288081 0.043467686
0.022099525 0.17266704 0.11549799 -0.045423135 -0.041662157 -0.17400049 0.104002394 -0.075884975
0.06000282 0.1372731 0.09741043 -0.10153822 0.06690994 -0.08229964 0.03610398 -0.0046144505
-0.17386094 0.123332456 -0.03191168 -0.090879604 0.16634624 0.0972694 -0.031632468 -0.027798777
-0.009842703 0.059417132 -0.04894434 -5.291845e-06 -0.16780019 -0.1409971 0.087003276 0.14712964
-0.1585326 0.17722832 0.111558124 -0.1264851 0.03625226 0.037664995 0.106994376 0.16878153
-0.089705735 -0.120366424 0.16436376 0.106563136 0.16034095 -0.16086398 -0.16040544 0.0404267
-0.05828269 -0.10645923 0.14220522 0.065094255 0.050940365 -0.06818538 -0.069463104 -0.11596433
-0.10632476 -0.080326535 0.06340471 0.12890331 0.08212706 -0.13656205 0.06277442 0.059024885
0.12782174 0.024957756 -0.0062123537 -0.036935642 0.0678823 0.01479654 -0.11311795 -0.10574703
-0.15491457 0.084970444 0.008772257 0.15249819 0.07648243 -0.1450386 -0.14374049 0.028874965
0.121666394 -0.04543157 0.0016791307 0.15276529 0.08356574 0.071979366 -0.05737058 0.16994856
-0.03654386 0.024808157 -7.426739e-05 0.019313766 -0.12286933 -0.03721954 0.058671236 0.08804308
0.1287839 -0.05434247 -0.07535102 0.14066133 0.10079846 0.08571677 0.081686705 -0.17604311
-0.03865094 -0.02597034 0.059693635 0.067478985 -0.11059269 -0.1070594 -0.16969152 -0.15980297
0.15714993 -0.085986815 0.14175461 0.043760754 0.076231584 -0.1346964 -0.05508724 0.051383656
0.062099483 -0.05386119 0.012796715 0.16171964 0.09565096 0.02689022 0.015615349 0.0632671
-0.11677714 0.10604268 0.050487757 -0.15708429 0.07501702 -0.07940483 0.054947067 0.02123198
0.047961473 0.06906413 0.14018367 -0.07690273 -0.079524465 0.09643023 0.09340334 -0.08009814
0.010740002 0.098878875 0.047043726 -0.09026493 -0.052444223 -0.13983159 0.017125145 -0.122873425
0.06776127 0.14287655 -0.010397494 0.09025238 -0.02867 0.1767006 -0.15680242 -0.07056149
-0.01289612 0.026094342 -0.0708644 0.16832557 -0.022801658 0.13430218 0.011972973 0.037125997
-0.097600885 -0.14115064 0.031611443 0.04295827 -0.13711457 0.049775258 -0.13367693 -0.067211956
0.106949344 -0.07860552 -0.16711782 -0.11069954 0.008197352 -0.006501748 -0.16413787 0.08732602
0.14522153 -0.09254183 -0.10433558 -0.11470901 -0.00067317643 0.034776106 0.17026521 -0.097424336
